testing/pytorch/model.pth (torch, 14999 bytes, 5 tensors)

weight f4 [64, 13]
00000000: 8960 603e 9f5d 7b3e 8981 a2bd c70d 883e
00000010: 7f65 9abd c79e 5d3d 7b4e 17be 4992 363e
00000020: e173 7b3e 4702 56be 69f8 7b3e ab60 7d3d
00000030: b4c1 523e 6497 4e3d a7d9 f93d 63aa aabc
00000040: 78db 623e 531f 6c3d e770 0ebe 3ae3 b23d
00000050: b877 13be 0419 a0bc 121f c9bd 8aa3 443e
00000060: aa56 70be 1c83 e4bd a827 99bd b359 3bbe
00000070: 7a93 043d 424e 92be 1893 863e 508e 7ebe
00000080: 7ab3 683e 0377 0a3d f358 acbd f15a 383e
00000090: bca6 5e3d 22a4 6a3e 773e 3d3d 3886 bebd
000000a0: d2a0 b83d a54e aebd 9938 f73d b4b2 7b3e
000000b0: 466c 2e3e 538b 04be 0d3b 323e 5bc7 263d
000000c0: 61d9 063e 0af0 40be c4cb 93be 928a f0bd
000000d0: 4d5a 5dbe 7069 653e 34f2 a23d 7f0f eb3d
000000e0: e2cf af3d d6d9 38bc 4e55 623e 828b 4abe
000000f0: 9b64 613c 9c30 43be 762a bc3d 919c c4bd
00000100: 5cbf c03d 609b b7bd 7680 7f3e 1413 47be
00000110: f0bd 38be 0bb2 47be b2a3 8a3e 1153 883d
00000120: 36b3 953e 9c64 85be 41d0 9cbe eb25 76be
00000130: 06af 22be 8af7 ab3d 4784 ba3d 2372 763e
00000140: 9846 25be 8a84 5ebe db12 123e 1430 dabd
00000150: cff3 303e 9a5c 87bd 160a 0e3e 8127 72be
00000160: 2a6f 27be c051 d63d 1de1 493d 837d 7dbd
00000170: 107c 333e 11fc 3b3e f7d9 41be 3459 14be
00000180: f4ac 833e 6301 c1bd 7ac2 c3bd dbe7 84be
00000190: a02c 1bbe 346b 7f3d ec0a 3fbd c1f9 4bbe
000001a0: f248 e4b9 1a3d 4fbe a547 74be ccda 15be
000001b0: 2d9a 79be ddbd 38be 86f6 943e e083 353d
000001c0: 7470 a03d cc01 87be 86bc 36be 6b3b b0bd
000001d0: 0e70 403d f569 8ebe 3ff4 cebd fa14 4abe
000001e0: e2b2 13b9 b5d0 08be 40c9 caba e1e2 5bbe
000001f0: ae09 2abe 124d 48be ec5e 03be 3b1c 7bbe
00000200: 285d 883e fd3b afbd edd0 753e 6484 a73d
00000210: 73a2 6ebe bf45 4d3e 8c8f 97bd 560f debd
00000220: f135 6cbe de95 8fbe 3b2b a63d ebb6 74bd
00000230: 7600 de3d 9b94 6cbe 8b90 563e 4957 65be
00000240: 6c7e 01bd 838e 273d fc2a 183e 9a7e 513e
00000250: 3423 863e 7538 77be 4d8e b73d f1f9 0bbe
00000260: 117f 4cbd 55f9 5dbe a415 8b3e 6633 64be
00000270: 1adc 113e 8bd8 d33d cee8 ae3d a113 1bbe
00000280: a6eb 7c3e c9f0 673d dbec f03c f70a 73be
00000290: 06a5 db3d fe43 4dbd a4f3 02be 2c71 7b3e
000002a0: 8d6c 7f3d 8277 0bbe b292 2cbe baab 333c
000002b0: 78bb 293e 942b 4abd 5ce2 34be 8b74 99bd
000002c0: 7127 6dbe 0b78 f63d 8227 733e 9ed0 7dbe
000002d0: 65fc 3c3d 5b1c 2a3e 2f40 4d3d 31c1 c0bd
000002e0: 940b 103e d490 163e 9dc3 cc3d cfc5 34bd
000002f0: 8ce7 91bd 85f5 f83c 827a 4ebd 17b1 acbd
00000300: 817d 303e cced 703e 9298 f6bc e98c b5bd
00000310: a628 c03c 775b 27bd a8bb 8d3d 384f 5a3d
00000320: 1686 7cbe d8ed 02be 3014 843e 70e0 a93d
00000330: ddfd 1ebd 8ce8 3ebe 5ea4 1fbe c2c4 8cbe
00000340: 404d abbd 7dbb c13d 94b0 363e 64b2 fb3d
00000350: fd76 76be 2d27 26be dbd1 29bd ab6e 883e
00000360: a4ca 343d 599f 89bd 786e dc3d 285a edbd
00000370: 2ef3 33be e420 543e b8e9 1ebe aa9e 40bd
00000380: 91c9 9cbe 7399 4e3e 01d9 553e cb89 003e
00000390: b90b 62be 5e95 8cbe fea6 67be 324e 623e
000003a0: 0d82 103e 7455 793e de03 0b3e 4e1f a23d
000003b0: dff5 b3bc 50d5 74be 6eb3 84be f6ba 81be
000003c0: 78f5 cf3d 1408 fdbd 127f 9fbd 8e6f 39be
000003d0: df24 58bd d5e5 42be a2ee 4ebe 781f bc3d
000003e0: fbe0 afbd e0a7 3b3e f055 c3bd fb4f 4dbe
000003f0: a5d1 4bbd 3a16 08be 3753 bcbd fbdd 8cbe
0.21911825 0.24547432 -0.07934863 0.2657301 -0.0753889 0.0541065 -0.14776032 0.17829241
0.24555923 -0.20899306 0.2460648 0.061859768 0.20581704 0.050437346 0.12199717 -0.0208332
0.22154033 0.05764706 -0.13910256 0.08734746 -0.14401138 -0.019543178 -0.09820379 0.1920301
-0.2347056 -0.1115782 -0.07478267 -0.18295936 0.032367207 -0.2857533 0.262841 -0.24858975
0.22724715 0.033804905 -0.08415403 0.18003441 0.05435823 0.22914174 0.04620215 -0.09302944
0.09015049 -0.08511094 0.12071342 0.24579889 0.1703349 -0.12943773 0.17405339 0.040717464
0.13168861 -0.18841568 -0.28866398 -0.1174518 -0.21616478 0.22403502 0.07956353 0.11477565
0.085845724 -0.011282405 0.22102854 -0.1977978 0.013756896 -0.19061512 0.09187786 -0.09600175
0.09411499 -0.08965182 0.24951348 -0.19440871 -0.18041205 -0.19501512 0.27078015 0.06656469
0.2923829 -0.2605332 -0.30627635 -0.24037902 -0.15887079 0.08396824 0.09107261 0.24066977
-0.1614021 -0.21730247 0.14265005 -0.106537014 0.17280506 -0.06609459 0.13871035 -0.23647882
-0.16351 0.10464811 0.04928695 -0.061887275 0.17527795 0.18357874 -0.18930803 -0.14487153
0.2571789 -0.094240926 -0.09558578 -0.25958142 -0.15153742 0.062358096 -0.046641275 -0.19919492
-0.00043541897 -0.20238152 -0.23855455 -0.14634246 -0.2437522 -0.18041177 0.29094332 0.04431522
0.07833949 -0.26368558 -0.17845353 -0.08605083 0.046981864 -0.27815214 -0.1010518 -0.19734564
-0.00014085651 -0.13360865 -0.0015471354 -0.21473266 -0.16605255 -0.1956065 -0.12829179 -0.24522488
0.26633573 -0.08556364 0.2400548 0.081795484 -0.23304157 0.20046137 -0.07400426 -0.10842769
-0.23067452 -0.28044027 0.08113714 -0.059744757 0.10839932 -0.23103563 0.20953576 -0.22396578
-0.031614706 0.040907394 0.14860147 0.20458451 0.26198733 -0.2414263 0.089626886 -0.13669564
-0.049925867 -0.21677144 0.27164948 -0.22285232 0.14244118 0.10344037 0.08540498 -0.15144207
0.24699268 0.056626115 0.029409816 -0.23734652 0.10724835 -0.05011367 -0.12788254 0.2455489
0.06235938 -0.13619807 -0.16852835 0.010966236 0.1657542 -0.049357966 -0.17664474 -0.07492932
-0.23159577 0.12034615 0.2374554 -0.24786612 0.04613914 0.16612379 0.05011004 -0.09411848
0.14066917 0.14703685 0.09998248 -0.044133957 -0.07124242 0.03039051 -0.0504098 -0.08432215
0.17235376 0.23528212 -0.030102048 -0.08864767 0.023456883 -0.040858712 0.06920558 0.053298205
-0.24660525 -0.12786043 0.25796652 0.08294761 -0.03881632 -0.18643397 -0.15590045 -0.27493864
-0.08364344 0.09459589 0.17840797 0.12289885 -0.24068828 -0.16225882 -0.0414599 0.26646933
0.044138566 -0.06719846 0.10763258 -0.115894616 -0.17573234 0.20715672 -0.15518844 -0.047026314
-0.30622533 0.20175724 0.20883562 0.12552564 -0.22074784 -0.27457708 -0.22622296 0.22100142
0.1411211 0.24349004 0.13575694 0.07916127 -0.021967826 -0.23909497 -0.25918144 -0.25337952
0.10154241 -0.123550564 -0.077879086 -0.18108961 -0.052769538 -0.19032986 -0.20208219 0.0918569
-0.085878335 0.18325758 -0.09537876 -0.20050041 -0.04976048 -0.13289729 -0.091955595 -0.27513108

bias f4 [64]
00000000: 90f3 61be b4e8 07be dde5 3cbe 21b8 293e
00000010: 865c 3bbe c1f2 113c 66d6 b63d 0ff4 24be
00000020: 4f94 b63d 0745 72be f61f 44be 8be5 6cbe
00000030: 73b9 bcbd 656f 93bd 4fb7 0d3d 06a7 babc
00000040: 2280 fa3d 0af5 913e 66be 023e 3954 c5bd
00000050: 2fe6 6ebe 9ff1 cb3d 9c66 ecbd d654 063e
00000060: 9c3e 563e beac 0d3e a077 943e 19a4 963e
00000070: 2d21 ba3d 3722 2fbe 70db 853e ac75 e8bd
00000080: 02e2 c7bd 9061 603e 5bbe 7c3e 60e6 da3d
00000090: 3d4c 3d3d 44c6 51be a7c2 b43b 14a4 963e
000000a0: ce68 d03d c45e 573d d5c9 97bd 280c 8ebd
000000b0: 0f5f 4c3e 20e8 463d 9d2f 523e 03bc a2bc
000000c0: f100 1c3e 20f0 153e da29 1f3d 6069 4e3e
000000d0: 69ce 223e c41d 863e fd74 5b3e 2900 1fbd
000000e0: fd73 4dbe 39d4 953d 483f cebb 9ccd 9dbd
000000f0: b413 73bc 1eee 3c3d 7b58 4a3e e34a f33d
-0.22065568 -0.13272363 -0.18447061 0.16574146 -0.18297014 0.008907975 0.08927612 -0.16108726
0.08915006 -0.23659144 -0.19152817 -0.23134439 -0.09215059 -0.07198981 0.034598645 -0.022784721
0.12231471 0.28507262 0.12767944 -0.09635205 -0.23329996 0.09958195 -0.11543009 0.131183
0.20922321 0.13835427 0.28997517 0.29422072 0.09088359 -0.17102896 0.2614398 -0.11350569
-0.097599044 0.21912217 0.2468199 0.10688472 0.046215285 -0.20485789 0.0055163684 0.29422057
0.1017624 0.05258061 -0.07411543 -0.06935912 0.19958137 0.048561215 0.20525976 -0.019865042
0.15234734 0.14642382 0.038858272 0.20157385 0.15899052 0.26194584 0.21431346 -0.038818512
-0.20063777 0.07315869 -0.006294165 -0.077052325 -0.014836241 0.046125524 0.19760315 0.11879518

weight f4 [32, 64]
00000000: 8d5b 2abd e330 50bd 7608 f2bc ccb4 37bd
00000010: c969 e73d ced5 8e3d 4427 ef3d 1da9 1e3b
00000020: 0e1f e43c 844a 473d c396 f2bd 1a40 763c
00000030: a717 01bc c8b1 8dbd aa0e c3bd 98f3 ec3d
00000040: b8c8 d53d f55e 763d e0a6 fe3d 3a3c 41bd
00000050: a4bd aebc a353 4c3d 8bda 8bbc b043 b9bc
00000060: 7eb1 cbbd b702 183d 52a8 90bd d23e c03b
00000070: 7f3d 013e 1e95 0dbd 6948 15bd 90cd a53d
00000080: 6f1a 2bbd 7e15 17bc d651 f53d 0bdb 3ebd
00000090: 496c b1bd a74e 88bd 901d 0bbd 46e7 61bd
000000a0: 80be 83bd 28a2 573d 5ce0 b73c ad02 14bd
000000b0: 9709 bebd 716a 1abd 520c 4bbd 1ca0 22bd
000000c0: e1f9 ddbd c523 f53c 31b1 b8bd 35ad c8bd
000000d0: d124 cdbd 6bba 5d3d f16a 97bd 4a01 3fbd
000000e0: 75ad d13d ed19 8e3d 6c9c 973d 3d71 f0bd
000000f0: a546 b3bd 3081 2fbd 3840 d63d a8b2 8c3c
00000100: b08b c4bd 7273 8bbb 6f09 cdbd 51dd 04bd
00000110: 97e9 24bd e0d9 ce3d 0867 043d 2118 d1bc
00000120: 02c4 5a3c 7c71 2abd 5518 393d 76b8 383d
00000130: 888f ea3c f780 55bd d874 d73d 09c0 a4bc
00000140: fd71 52bd d29f 8f3d 3f3f c53d 9ac7 f83d
00000150: c02e 033d 4b5a 41bd 7e4e 743d 78e9 cd3d
00000160: 0c0b 02be 2bb5 b7bc da11 bbbd e2ee 933c
00000170: 69d0 333d 7166 02bd 95c4 66bc 0e67 5b3d
00000180: 850d b1bc ab67 e6bd 8f1a c03d 44e2 86bd
00000190: 04b8 92bc 1b48 373c 2028 f6bb 23cf fcbd
000001a0: f880 553d e840 7fbd e134 8abd a1da d83c
000001b0: a7e7 8fbd 0110 81bd be2b 42bd 51bc 43bd
000001c0: d219 5dbd 058e 22bd 7066 e63c fdca d7bd
000001d0: 0116 a5bd d76f 6bba d529 463c 9817 873d
000001e0: 8cc8 c0bd 1c30 1e3d d84f 863d 615c 8a3d
000001f0: 8b5e f8bd 7da0 5dbd d67f e1bd fafb aabd
00000200: 76d2 c03d 816f 313b 4d0b 9f3d 2d17 37bd
00000210: 29ba 2b3d 4dea 38bd 2ce1 b83d d041 e3bc
00000220: 61a4 99bb a19e a3bd 720e b13c da9e 143e
00000230: d110 ac3d 7da0 25bd 55a7 d63c 27b5 813c
00000240: 8a16 95bd fd9f ff3d 5704 fe3c 5a9b 4f3d
00000250: 12b4 d0bc b465 f6bc a758 433d e691 923d
00000260: b801 653d 39f8 08bd 20dc 183e da51 1f3c
00000270: 6603 3abd 77b5 f6bc 5042 193e 115e d93c
00000280: 960c 443c abee dabc 9a0a a4bb 8b3b 9ebd
00000290: c61e 94bd 5fb4 c93d ca18 073e f371 173e
000002a0: a858 81bd 21a8 be3d c5ee 4fbd 6552 d23d
000002b0: 76cf f33d a37d f93d 0f17 ee3d 4ce9 d43d
000002c0: 8f2c f33c e787 aa3d 2d15 a6bc 7da5 a33d
000002d0: f5a2 54bc 7788 bc3c a1f6 a7bd 42a0 1abb
000002e0: 1d89 16bd 2ba6 8abc 054d 5fbd f7bd b4bd
000002f0: 4bbe 0c3d a6b9 e13d bd28 103e b833 d23d
00000300: 42d7 27bd 07f8 cbbd 8165 993d edad c83d
00000310: 0dd3 a8bd e181 923d fdde 073e db3f 053d
00000320: 178f 49bd 3caa 053e 7fec 9c3d 1438 de3d
00000330: 622e 71bd fd47 ce3d f50e 6fbd d58b 1a3e
00000340: fa0f dfbc 69cc d43d 4e4f 5b3d 6249 6c3d
00000350: b706 e63b ad67 9c3d 4d0c dabc d2ae b9bd
00000360: 6e9c a2bc 3a8b ff3d 0f5a afbb 5eec 8e3d
00000370: af6c 96bc d547 f63d f01e d23d 9e38 923d
00000380: 1d57 18bd d586 97bd 1a5e 043d bcaa 37bd
00000390: 09d6 023e 407c bfbd 192e ad3d d19c 1b3e
000003a0: 2f4e bd3d 64b0 8f3d 47ea c6bd 21ea 153e
000003b0: 186e ff3b 90c7 b9bd a0b0 193e 5a51 adbc
000003c0: 6001 9e3c e714 103e d822 73bd 29c0 70bd
000003d0: 17f3 3b3d 8545 5c3c cccb 723d 74b9 9dbd
000003e0: 88ce 053d 5b1a c9bc 5854 16bd ad8f b5bd
000003f0: 1f4d c03d 1a35 563d d8f2 9cbd c245 013e
-0.041591216 -0.050827872 -0.02954505 -0.044850156 0.11299474 0.06974374 0.11677411 0.0024209686
0.02784684 0.048655048 -0.11845162 0.015029931 -0.007879174 -0.06918675 -0.09524281 0.11569899
0.10438675 0.06014915 0.12434173 -0.047176577 -0.021330662 0.04988445 -0.017071983 -0.022615284
-0.09945963 0.037111964 -0.070633546 0.0058668638 0.12621115 -0.034566037 -0.03644601 0.080958486
-0.041773256 -0.009221433 0.119784996 -0.046595614 -0.08663232 -0.06655627 -0.03396374 -0.0551522
-0.06432819 0.05264488 0.02244585 -0.036135364 -0.09279173 -0.037699167 -0.049572296 -0.039703473
-0.10838676 0.029924283 -0.090181716 -0.097986616 -0.10016788 0.05413286 -0.07393444 -0.04663209
0.102381624 0.06938539 0.07402882 -0.117403485 -0.08753709 -0.042847812 0.104614675 0.017175034
-0.09596956 -0.0042557055 -0.10011565 -0.032437626 -0.04026183 0.1010015 0.03232482 -0.0255242
0.013352396 -0.041612133 0.04518922 0.04509779 0.028632894 -0.052124944 0.10520333 -0.0201111
-0.05137824 0.07012905 0.09631204 0.12147446 0.032027006 -0.04720525 0.05964517 0.10054296
-0.12699527 -0.022425255 -0.09134264 0.018058244 0.043899927 -0.031835977 -0.014084955 0.053565077
-0.021612892 -0.11250242 0.09380066 -0.065861255 -0.017910011 0.011186625 -0.0075121075 -0.12344196
0.052124947 -0.06231776 -0.06748367 0.026471438 -0.07026606 -0.06301881 -0.047404997 -0.047787014
-0.053979702 -0.03968622 0.028125018 -0.10536764 -0.080608375 -0.0008981204 0.0120949345 0.06596297
-0.09413251 0.0386201 0.06558198 0.06755901 -0.12127408 -0.05410813 -0.11010711 -0.08348842
0.09415142 0.0027074518 0.07765827 -0.044699837 0.041925583 -0.04514532 0.09027323 -0.027741343
-0.004688785 -0.079892404 0.021613333 0.14513722 0.08401645 -0.040436257 0.026202837 0.01583345
-0.072796896 0.12481687 0.031007929 0.050685264 -0.02547649 -0.030077793 0.047691967 0.07156734
0.055909842 -0.03343985 0.14927721 0.009724105 -0.045413397 -0.030115826 0.14966702 0.026534112
0.011965891 -0.026725134 -0.0050061466 -0.07726201 -0.07232432 0.09848856 0.1319305 0.14789562
-0.06315738 0.09309412 -0.050764818 0.10269622 0.119048044 0.121821664 0.11625492 0.1039606
0.029684333 0.083267026 -0.02027377 0.07990549 -0.012978305 0.02301429 -0.082013376 -0.0023594056
-0.036751855 -0.016924938 -0.05451681 -0.088252954 0.034361165 0.11021738 0.1407804 0.10263771
-0.04097677 -0.09959417 0.074900635 0.09798799 -0.0824338 0.07153679 0.13268657 0.0325316
-0.049208727 0.1305322 0.076622956 0.1085054 -0.058882125 0.100723244 -0.058363874 0.15092404
-0.027229298 0.10390551 0.053542428 0.05768717 0.0070198434 0.07636962 -0.026617194 -0.090665475
-0.019849982 0.12477727 -0.005351312 0.06978677 -0.018362371 0.120254196 0.10259807 0.07139705
-0.037192453 -0.07398764 0.032316305 -0.04484056 0.1277696 -0.09349871 0.08456058 0.1519654
0.09243428 0.07016066 -0.097126536 0.14640094 0.0077951066 -0.09071267 0.15008783 -0.021156956
0.019287765 0.14070474 -0.0593594 -0.05877701 0.045886125 0.013444309 0.059276387 -0.07701388
0.032667667 -0.0245487 -0.03670153 -0.088652946 0.0938971 0.052296735 -0.07663506 0.12624267

bias f4 [32]
00000000: 28c4 d23d 5c2f 18b9 9e65 973c 7b83 013e
00000010: b94e aa3d 175c 153e 82c6 073e 081d 49bd
00000020: 1ad9 773d c653 b93d 54b5 70bd 872a 263d
00000030: 92c2 37bd cc4a b7bd d75c 36bc 7cab d73c
00000040: 9644 723b 8368 b2bd 4c00 c73d 1fef d03d
00000050: 8bac 18bd 64f2 70bd 7ddb a5bc ac38 bdbd
00000060: 97a3 8fbd daa7 4fbc e795 dd3d 8f41 ccbd
00000070: ad19 2c3c d147 9fbd 410a 06be 27ce 1f3b
0.1029132 -0.00014513492 0.018481072 0.12647812 0.083157964 0.1458591 0.13259318 -0.049099952
0.06050978 0.09049182 -0.058766678 0.0405679 -0.04486329 -0.08949813 -0.011130533 0.026326887
0.003696715 -0.0871134 0.097168535 0.10201859 -0.037273925 -0.05882491 -0.020246262 -0.09239325
-0.07013624 -0.012674296 0.10819607 -0.09973442 0.010504168 -0.0777737 -0.13089849 0.002438435

weight f4 [1, 32]
00000000: fd8b 4e3c 2d1b c5bc ebb0 253e 7ad9 d03d
00000010: dc70 103e 9bfe cc3d e70f 4d3d 51b2 023e
00000020: 6db8 c8bd 46db f63d adc2 f03d 5353 74bd
00000030: ad8e b33c 5813 fcbd ef4b 13be d95b 243d
00000040: da7e 913d b617 0cbd 4d98 b33d 19d8 f3bd
00000050: 3556 b5bd fe0b 193e 8350 25be d566 2d3d
00000060: a5da 303e 1331 283e 896b bc3d ed5a 22be
00000070: b93a 5e3d 0182 55bd ead4 18bd f8dc 2e3e
0.012606618 -0.02406081 0.1618077 0.1019773 0.14105552 0.100095 0.050063994 0.12763335
-0.098008014 0.12053542 0.117558815 -0.059649777 0.021918619 -0.12308377 -0.14384435 0.040126655
0.07104273 -0.0342023 0.087692834 -0.11906452 -0.08854333 0.14945981 -0.16143994 0.042334396
0.17270906 0.1642497 0.09200198 -0.15854998 0.05425522 -0.052125935 -0.037312426 0.1707648
